dqn_cartpole.pth (torch, 72378 bytes, 6 tensors)

layer1.weight f4 [128, 4]
000000 17 0c e4 3c aa bf be 3d 48 62 7b 3e d8 cd f2 bd
       0.027837796 0.09313901 0.2454921 -0.11855668
000010 3a 85 51 be cb 1b 61 bc 22 d6 5f 3f 04 28 53 3d
       -0.20460978 -0.0137395365 0.87436116 0.051551834
000020 5e 9d 9d 3d 78 56 1a 3e e2 e8 49 3e 86 16 29 be
       0.07696031 0.15072048 0.19717744 -0.16512498
000030 e6 3e a2 3e 5c fd c3 bd 43 b0 1b 3e 60 ce 91 3d
       0.31688613 -0.09569809 0.15203957 0.07119441
000040 54 0f f4 be 3f 26 b0 3e c9 d2 0e 3f 04 4d 54 bd
       -0.47667944 0.3440418 0.5579038 -0.05183126
000050 60 1a 65 bb 3f c3 a0 be e6 80 89 3d 88 f6 ac 3e
       -0.0034958348 -0.3139896 0.067140386 0.33781838
000060 e6 ba c7 be 65 c2 9e 3e 61 44 0b 3c df 68 9e be
       -0.3900978 0.31007686 0.0085001895 -0.30939385
000070 4b 38 a4 bd 8f 0a f3 be aa 87 ea 3b 4a 90 8f 3e
       -0.080185495 -0.47468993 0.0071572857 0.2803977
000080 94 7b 2e be 4e be 8f be f9 1b 8c bf b6 c3 7e be
       -0.17039329 -0.28074878 -1.0946037 -0.24879345
000090 f3 d4 d3 3e 88 21 47 3c ee 12 4d bf 2c b6 be be
       0.41373405 0.012153991 -0.8010701 -0.3724836
0000a0 9f 39 06 be 0a ee 06 3f 11 67 0b 3f b2 c0 c2 3e
       -0.13107918 0.5270697 0.5445414 0.3803764
0000b0 7b 37 d0 3c 4a f0 4b 3d 6f 53 60 be 5b 1e db 3d
       0.02541708 0.049789704 -0.21906827 0.10699149
0000c0 9c dc b1 3e 31 1e 06 3e 9d ee 89 be 5a 4f a3 be
       0.34738624 0.13097455 -0.2693986 -0.31896478
0000d0 39 3f a9 3e 9b 4c 8a 3d 37 01 f8 3e f3 10 ab be
       0.33056048 0.067528926 0.48438427 -0.3341137
0000e0 7c e6 71 3e f5 bb af be 1e 9a a8 3d ff f0 85 bb
       0.23623079 -0.34323087 0.082325205 -0.004087567
0000f0 56 35 fb be 93 0f 7b 3e 4b 23 b5 be d9 42 1b bf
       -0.4906413 0.2451766 -0.3537849 -0.60648876
000100 ce 71 20 3f d3 ec af 3e 57 a1 ca 3e 94 17 a0 3e
       0.6267365 0.3436037 0.39576218 0.3126799
000110 ba a4 40 3e 00 51 01 3f 7a 0e f6 3e 52 1e 6f 3e
       0.18812838 0.5051422 0.4805792 0.2335141
000120 90 7a 99 3e 45 98 1b 3f a3 b7 82 3f 56 c4 05 3f
       0.2997632 0.6077922 1.0212291 0.5225271
000130 05 46 0c 3f 6d 40 ce bd 46 a9 0c bf 38 09 9f be
       0.5479434 -0.10070882 -0.5494579 -0.3106172
000140 c2 66 67 3f fc c8 ef 3d 64 84 8f 3e df f3 0f 3f
       0.9039117 0.117082566 0.28030694 0.5623149
000150 4c f2 30 be eb 31 76 3e 1a 13 9c 3e 65 29 79 3e
       -0.17279929 0.2404248 0.30483323 0.24332197
000160 e4 c5 fb bd ba c2 f3 bd 0f 61 89 3e 33 65 60 3c
       -0.12293604 -0.119023755 0.26831862 0.013696003
000170 c2 f3 86 3e cb 68 3a be 22 02 c4 be 0f b3 1a 3d
       0.26357847 -0.18204038 -0.38282877 0.03776842
000180 f8 cd f0 bc 51 7c 08 bf f1 38 af bd 12 73 cc be
       -0.029395089 -0.5331469 -0.085557826 -0.39931542
000190 5c e4 08 3e 17 2e 26 be fb 3d 85 be 10 0e 82 be
       0.13368362 -0.1622852 -0.2602385 -0.25401354
0001a0 17 46 f4 be cc c9 f0 3e b3 f6 b9 3e 69 f3 a2 bd
       -0.47709724 0.4702896 0.3632103 -0.07956583
0001b0 20 52 c3 be 77 c5 67 3e f9 2a 24 3d a5 06 bb 3e
       -0.38148594 0.2263392 0.040080044 0.36528507
0001c0 3b 30 4c be 32 ce 7e be f7 3d 99 be ca cb e2 3e
       -0.19940273 -0.24883345 -0.29930088 0.44296104
0001d0 00 d8 2c 3f 6e d7 eb bb 0f f4 31 3f 1b 4f 14 3f
       0.6751709 -0.007197312 0.6951303 0.57933205
0001e0 f7 d1 49 be b3 ae 8b 3e 02 bd 11 3f 6b 8c 86 3e
       -0.19709001 0.27281722 0.5692903 0.26279005
0001f0 00 57 3e 3f f8 85 84 3e ed b7 6a be 5d 13 8e 3c
       0.743515 0.2588346 -0.22921725 0.017343218
000200 4c 2b 47 3e d5 6f 3e 3e 40 d2 53 be 3b e3 68 3e
       0.1945011 0.18597348 -0.20685673 0.22742932
000210 cd d3 0e bf 13 82 c7 be 8c 30 c8 bd a2 52 c0 3e
       -0.5579193 -0.38966426 -0.097748846 0.37563044
000220 72 6c cc bd fd 33 98 be b2 d0 25 3e 0b f5 95 3e
       -0.09981622 -0.29727164 0.16192892 0.29288515
000230 77 a8 47 3e b7 c7 11 bf 55 e2 43 3e 1c b1 c3 be
       0.19497858 -0.56945366 0.19129308 -0.3822106
000240 73 c9 c4 bd 1d af 8e 3e ec be d0 bc 58 95 ab 3e
       -0.09608736 0.27867976 -0.025481664 0.33512378
000250 3b 22 cc bd 36 48 1e be a9 74 1f bf 90 51 77 3e
       -0.099674664 -0.15457234 -0.62287384 0.24152207
000260 e9 2f 86 be 1b 53 b2 be 3c 33 f1 3e d3 ef ca 3e
       -0.26208428 -0.3482903 0.471094 0.39636096
000270 c9 38 00 3e 73 36 8a be ab bc 00 bd d3 57 4e 3e
       0.12521662 -0.26994666 -0.031429928 0.2015069
000280 07 2a 4b bc fd 37 85 3e ed 11 35 3f 09 a0 db 3d
       -0.012400157 0.26019278 0.7073048 0.10723884
000290 6d b8 8d 3d ed aa 0e 3a ee 7a 82 3e e7 d6 34 3e
       0.06919942 0.000544234 0.25484413 0.17660104
0002a0 0c 1f db 3d a9 1f 61 3e ea 3a 3d 3e 84 c5 d5 be
       0.10699281 0.21984734 0.18479505 -0.41752255
0002b0 1e 71 99 bd 74 be 91 3e 1b 0e 77 3e 72 e1 b3 3e
       -0.074922785 0.28465617 0.24126475 0.3513294
0002c0 c1 de 99 bc 8e fc 9a 3e a8 c9 6b be b0 77 93 3e
       -0.018782975 0.3027081 -0.23026145 0.28802252
0002d0 f3 3c e1 3e 49 e5 9e be 0e 9a 42 bf 70 15 46 be
       0.43991813 -0.31034306 -0.7601632 -0.19344115
0002e0 5b 7c df 3d 8f 1f 57 3e a8 70 8d bd 09 68 7d be
       0.10912391 0.21008132 -0.06906253 -0.24746718
0002f0 5c 7d 24 3f 66 27 e8 3e de 03 05 bf 5e 8b 52 3e
       0.64253783 0.4534256 -0.51959026 0.20560977
000300 c1 06 22 bf 92 b5 ef 3d c5 6b fb be 5e ab 55 3e
       -0.63291556 0.11704554 -0.4910566 0.20866153
000310 3f b2 99 be 50 88 db be 2a 0a 81 3e f7 fb 6e 3e
       -0.30018803 -0.42877436 0.25203067 0.23338304
000320 39 bf ae bd c4 e4 ba 3e f2 d8 3c 3e 87 45 87 3e
       -0.085325666 0.3650266 0.18442133 0.26420233
000330 f5 81 af 3e 54 2c 4a be 4b 0b ef 3d f1 96 e6 bc
       0.34278837 -0.19743472 0.11672076 -0.028148146
000340 f5 26 9a 3e 58 00 50 3e b1 f5 cc bd 10 b4 8c be
       0.30107847 0.20312631 -0.100077994 -0.27481127
000350 a5 9a 18 3f a0 ca 0d 3f be ec 37 3e b0 cb b1 3e
       0.5961097 0.55387306 0.17961404 0.34725714
000360 19 27 3c 3f 19 3f f9 3e 3c e5 34 3f ec 8f c8 3e
       0.7349716 0.48680952 0.70662284 0.39172304
000370 f3 49 53 3f 4c cc dd 3e bc 1e bf bd cb c1 75 bd
       0.8253471 0.4331993 -0.09332034 -0.05999927
000380 cb 33 5b 3e 83 f0 97 be d9 cd e4 be 75 1f 7a bd
       0.21406476 -0.29675683 -0.446883 -0.061065156
000390 f2 f3 16 bd 8e 17 9e 3e ab 0a 55 3e 91 6d 88 3e
       -0.036853738 0.30877346 0.20804851 0.26646093
0003a0 ee 66 23 3f 22 b3 83 3e bb 56 6a 3e b2 5a db be
       0.63828933 0.25722605 0.22884648 -0.42842633
0003b0 82 33 34 3e 94 5d d8 bd 60 77 48 bf b2 e4 04 3e
       0.17597774 -0.105647236 -0.7830715 0.12977865
0003c0 36 b0 5c be f3 fd ed 3d 6a 8c cd be 98 22 97 3e
       -0.21551594 0.116207026 -0.4014619 0.2951858
0003d0 b3 74 a2 3d ed dd 0e bf 45 8c 11 bf 86 24 d5 be
       0.07932415 -0.5580738 -0.5685466 -0.41629428
0003e0 82 74 90 be 3e bf c1 3e 76 fa d4 3e c6 54 a2 3e
       -0.28213888 0.3784122 0.41597337 0.31705302
0003f0 d6 6b c3 bd ed 58 7e 3e ca 62 05 be 1a 41 33 3e
       -0.095420524 0.2483861 -0.13025966 0.17505303

layer1.bias f4 [128]
000000 a4 51 a6 3e 8b e5 f4 3d cb df 09 3f 8d e7 3f 3f
       0.32484162 0.11957844 0.53857106 0.74962693
000010 b3 17 23 3f 01 16 0c 3f c0 c5 12 3f 96 88 c8 3e
       0.6370804 0.54721075 0.5733299 0.39166707
000020 bf 0e 84 bd 17 c4 00 bf 32 6b 88 bd 5d 65 a5 3e
       -0.06448125 -0.5029921 -0.06661071 0.32303897
000030 0c 6c d6 be 2b a9 f5 3e c8 94 c5 3e 53 55 77 be
       -0.41879308 0.47980627 0.38590074 -0.24153642
000040 e2 90 72 be 3a c3 df 3e 17 2d 97 be 27 b7 aa be
       -0.23688081 0.43703634 -0.29526588 -0.3334286
000050 d3 1e e1 3d f4 d5 b2 3e a7 c0 f7 3e ff f2 a5 3c
       0.109922074 0.34928858 0.4838917 0.020257471
000060 cf f3 00 3f e9 42 1d 3f 00 b1 18 3e 98 ea c6 be
       0.5037202 0.6143022 0.1491127 -0.38850856
000070 7d 61 91 be 3a ec b8 3e 2a c1 3a 3f ed 03 2a be
       -0.2839469 0.36117727 0.72950995 -0.1660306
000080 84 9c 49 3f 6f 78 2d be 08 64 d7 be 7e 26 9d 3e
       0.7875445 -0.16940473 -0.42068505 0.3069343
000090 0b 24 0b 3f 18 5d 01 3f 57 21 89 3d 84 d5 f2 3e
       0.5435187 0.50532675 0.06695812 0.47428524
0000a0 d8 0c a7 3e 33 76 12 3f aa bf 8f 3e a8 7d 2a 3f
       0.32626987 0.5721161 0.28075916 0.66597986
0000b0 a7 b3 19 3f a2 2a dc 3d c1 dc 0a 3f eb 83 e7 3e
       0.6003975 0.10750319 0.54243094 0.45217833
0000c0 3c c7 5f be d6 3d b8 be 14 e9 2e 3f c6 d8 1f 3f
       -0.21853346 -0.35984677 0.683244 0.62440145
0000d0 de f8 c5 3e 61 01 88 be 6b 5d e7 3c ec 7c 81 bc
       0.38666433 -0.26563552 0.028242787 -0.015806638
0000e0 b4 23 c7 be 97 ac 29 3f ee e0 b5 be 6e d1 dc 3e
       -0.38894427 0.66278976 -0.3552317 0.43128532
0000f0 bf 1d 36 3f 0c 4f c6 3d 85 8e dd be f4 3c c4 3e
       0.7113914 0.09683046 -0.43272796 0.38327754
000100 a6 87 ad bb 41 da ca 3e 8c e8 14 3f 2a e3 92 3e
       -0.0052957116 0.3961964 0.5816734 0.28688937
000110 22 61 75 be ab 4d a3 be 83 b4 e8 be ba 65 ce 3e
       -0.23962834 -0.31895193 -0.4545022 0.40311986
000120 36 10 a5 3e c4 b4 05 bf b2 e1 d1 be 8a aa b0 be
       0.3223893 -0.5222895 -0.40992504 -0.3450511
000130 da c1 a9 3e 51 29 b9 3e 81 2f b0 3e 06 91 1a 3f
       0.3315571 0.36164334 0.34411243 0.6037754
000140 04 32 8a be c4 3d be 3e ab 47 6c 3e e8 03 05 3f
       -0.26991284 0.37156498 0.23074214 0.51959085
000150 7a 35 8a be e0 68 a7 3e 2f 82 2b 3f ca 0e e0 be
       -0.26993924 0.326972 0.6699552 -0.43761283
000160 ec 88 66 be f1 7b e1 bd 9a d1 a6 be 7a a3 1a 3f
       -0.22513169 -0.11009968 -0.32581788 0.60405695
000170 68 a6 9f 3e 9b 26 94 be 78 ac 85 3d 15 c4 d4 be
       0.31181645 -0.28935704 0.065270364 -0.4155585
000180 8e 59 84 3e 7f ab 41 3d 44 6c 2d 3f de 0c 98 be
       0.25849575 0.047282692 0.67743325 -0.29697317
000190 ec 5c 50 be e9 92 1f 3f ad c8 c5 be 7d b2 f7 3e
       -0.20347947 0.6233354 -0.38629666 0.48378363
0001a0 14 6f c9 3e 8c 33 1c be fd d5 94 3e 5a df b3 3e
       0.39342558 -0.15254039 0.2906951 0.3513134
0001b0 e3 9e 46 3f d7 73 20 bf da 1a e9 bd 23 c7 bd 3e
       0.7758619 -0.6267676 -0.11382075 0.37065992
0001c0 ca d3 fe be 75 05 ea bd 5d 4f da be 48 86 e0 be
       -0.49770957 -0.11426822 -0.42638674 -0.43852448
0001d0 5d a6 e1 3e 1c 95 ed be 04 d0 9d be 12 0c 24 3e
       0.44072238 -0.46402824 -0.30822766 0.1602023
0001e0 ee cf 35 3f 81 63 d5 be 6e c3 2a 3f ed 1e 83 be
       0.710204 -0.41677478 0.6670445 -0.25609532
0001f0 3c 28 f9 be e4 cc af be ec 00 a5 3e 9e 26 e6 3e
       -0.4866351 -0.34336007 0.32227266 0.44951338

layer2.weight f4 [128, 128]
000000 59 04 d1 3d cc cf 57 3e 88 82 ca bb 22 a2 90 3d
       0.102059074 0.21075362 -0.0061801113 0.070621744
000010 a5 f2 08 3e 5f 3c f7 3d 4c e7 96 3d 25 af 01 3e
       0.13373812 0.12072062 0.07368335 0.12664469
000020 2e b0 11 bf 39 78 00 be af 4d 1f bf bf cc 17 3e
       -0.56909454 -0.12545861 -0.6222791 0.14824198
000030 42 51 d7 bd 75 78 f6 3b 9c cf 0f 3e 73 34 40 3c
       -0.105135456 0.007521684 0.1404404 0.011731255
000040 86 d5 ce be d6 a0 22 3e 5f f1 31 bf 68 c9 30 be
       -0.4039728 0.15881667 -0.6950893 -0.1726433
000050 fa 9f 5f bd d9 0b 66 3e c2 43 d7 3d 77 4a 7f 3d
       -0.054595925 0.22465457 0.10510971 0.062326875
000060 25 55 55 3d 1d 9a e1 3d 8c e0 55 3d e4 1d 88 be
       0.052083153 0.11015723 0.052216098 -0.26585305
000070 99 29 2a 3c ff 2f ae bc 97 14 22 3e 8e d1 73 be
       0.010385894 -0.02126312 0.15828167 -0.23810408
000080 ef 36 18 3e c5 d1 35 bd 57 7b c1 bc 9d 28 bf 3d
       0.14864706 -0.044389505 -0.023618383 0.09333918
000090 88 c1 3f 3e fb d6 30 3e 85 f0 bd 3c fc 9a 8c 3d
       0.1872617 0.17269509 0.023185978 0.068654984
0000a0 70 ee 03 3e ad 2e ee 3d f0 16 04 bd e0 58 64 3d
       0.12883925 0.116299964 -0.032248437 0.05574882
0000b0 b9 e6 e1 3d 7f 51 69 3e 7f b0 0e bc 56 a4 0e 3e
       0.11030335 0.22784995 -0.008709072 0.13929877
0000c0 f0 3e 5b bd 57 96 8b bd c0 27 37 3e 28 78 06 3e
       -0.05352682 -0.068157844 0.17886257 0.13131773
0000d0 bd 65 23 3d c0 44 1e bf 75 77 f1 be 24 9e 30 be
       0.039891947 -0.61823654 -0.4716145 -0.17247826
0000e0 75 19 d5 3d c8 91 e9 3d 9d 34 58 bd 80 08 c7 3d
       0.10405246 0.11404759 -0.05278455 0.09718418
0000f0 6d d6 c3 3d 2e 05 fd be b6 01 3e 3d de 48 fd 3d
       0.09562383 -0.49418014 0.04638835 0.12367414
000100 2f 91 15 bf 21 23 56 3d 02 9b 35 3e 53 81 16 3e
       -0.5842466 0.052279595 0.17734912 0.14697771
000110 d2 bc c0 be 2c 70 1f 3e f1 77 62 be 4e ef dc 3c
       -0.37644058 0.15570134 -0.22116067 0.026969578
000120 d4 75 43 3d d5 89 88 be 52 fd 79 bd f1 e0 42 be
       0.04771979 -0.26667657 -0.0610326 -0.19031121
000130 a8 d7 13 3e ab 7f 44 3d 05 07 18 3e 52 70 cd 3d
       0.14437735 0.047973316 0.14846428 0.10031189
000140 6d a2 c9 be 2a e5 b9 3c f0 b1 cb 3d 3c 38 1d 3d
       -0.39381734 0.022692282 0.09946048 0.038383707
000150 b9 25 48 3e bd 51 74 3c 64 91 dc 3d a7 bd 1b bd
       0.1954564 0.014912066 0.107699186 -0.038022663
000160 47 58 10 3e 25 4f a9 bd 2b ef 21 be ce 6d 62 3d
       0.14096175 -0.08267049 -0.15813892 0.0552805
000170 dc e5 8c 3d 02 0b 48 bf 7c ae 72 bd 2f fd 1c bd
       0.0687978 -0.78141797 -0.059248433 -0.038327392
000180 22 b0 3d 3d 92 f0 63 be 32 c1 d2 3d 06 a5 61 be
       0.04631055 -0.22259739 0.10290755 -0.22035608
000190 bb c5 00 bf 02 00 3e 3d 8e f4 3d be c9 bc e9 3d
       -0.5030171 0.046386726 -0.18550321 0.11412961
0001a0 a2 cc 1a 3e ef ec 82 3e e3 25 9b bb d1 ab 6e 39
       0.15117124 0.2557139 -0.004734741 0.00022761455
0001b0 83 2f 8f 3d 6c 90 a8 3c a1 9b ca be 24 5f 1b bd
       0.06991484 0.020576678 -0.3957186 -0.03793253
0001c0 a7 da 17 be ed 4e ca be ec 83 82 be dc 0f 82 be
       -0.14829503 -0.3951334 -0.25491273 -0.25402725
0001d0 a1 72 29 3e d4 5f aa be f0 8b 59 3b c0 6a 8f bc
       0.16547634 -0.33276236 0.0033194982 -0.017506957
0001e0 91 c1 fa 3d ae 2a cf be 01 d0 89 3d 4a 82 32 bd
       0.12243951 -0.4046225 0.06729127 -0.043581285
0001f0 e1 13 69 be f0 37 96 bd 4d 0e 36 bd 78 37 04 bd
       -0.2276149 -0.07334888 -0.044447232 -0.03227946
000200 59 51 67 3d 8c cb 46 3e 0f 34 71 3d ed db aa 3d
       0.056474064 0.19413584 0.058887538 0.08342729
000210 6e ba 20 3e 54 f7 05 3e 32 e3 04 3e 8c 12 02 3e
       0.15696117 0.1308263 0.12977293 0.12702388
000220 d7 5c 14 bf f0 42 ef bd 73 29 14 bf 72 c0 3a 3e
       -0.5795416 -0.11682689 -0.57875746 0.18237475
000230 73 d9 f8 bd d0 83 97 3d f4 17 12 3e 9b 55 d7 bd
       -0.1215085 0.07398188 0.1426695 -0.10514375
000240 a2 4d 08 bf c3 3d a9 3d 2b 26 30 bf 56 b0 54 bd
       -0.5324346 0.08263733 -0.6880824 -0.05192598
000250 55 6f ee bd bd 29 e1 3d ed b5 af 3d ae 82 16 3e
       -0.11642329 0.10994289 0.085796215 0.14698288
000260 f5 95 7c 3d 36 c3 07 3e 14 90 f7 3c c3 94 34 be
       0.061666448 0.13258061 0.030220069 -0.17634873
000270 28 78 fc 3c 71 89 c4 bd 8f 3f 51 3e 6b 4e 86 be
       0.030819014 -0.09596527 0.20434402 -0.26231703
000280 4f f0 99 3d 27 55 c5 bd c8 46 9d bd da 27 4d 3e
       0.07516538 -0.09635382 -0.07679516 0.20034733
000290 04 d7 89 3d 1d 80 02 3e 58 51 f2 3d c5 93 0f 3e
       0.06730464 0.12744184 0.11831921 0.14021213
0002a0 1a de 70 3d 48 6c 9f 3d 36 1b 66 bc e8 94 a0 3d
       0.058805563 0.07784325 -0.0140445735 0.078409016
0002b0 bc 1e ea 3d ea 84 87 3e 0a 47 c4 bc e4 5a 5e 3d
       0.11431643 0.26468593 -0.023959655 0.0542859
0002c0 f6 07 0b be be 14 b0 bd 6f 92 2f 3e c1 d9 75 3d
       -0.13577256 -0.08597706 0.17145704 0.06002212
0002d0 da ea 83 3c 9a 0a 30 bf 4b f7 17 bf a9 d5 7e be
       0.016103197 -0.68766177 -0.59361714 -0.24886192
0002e0 31 a4 61 3d b0 d1 89 3d f2 21 e9 bd d9 cb 2b 3e
       0.055088226 0.06729448 -0.11383428 0.1677698
0002f0 da 21 49 3d 8c 7f 07 bf 6d 7a 88 bd 73 b8 3f 3e
       0.04910455 -0.52928996 -0.06663976 0.18722706
000300 30 7d 20 bf 77 26 fc 3d 88 a4 0a 3e a1 04 ea 3d
       -0.6269102 0.12312024 0.13539326 0.11426664
000310 26 fa d5 be 59 4e fc 3d 1f 66 37 be 1e bd f7 3d
       -0.4179241 0.12319631 -0.1791005 0.12096618
000320 2f 90 04 ba 80 79 b9 be b4 ae d5 bd 47 61 54 be
       -0.00050568854 -0.3622551 -0.104337126 -0.20740233
000330 1b 1e 37 3e b2 88 75 3c 86 59 4f 3e f5 f1 0f 3e
       0.17882578 0.014986204 0.20248994 0.14057143
000340 c4 0a ff be eb 58 ea 3d 6d 31 6d 3d 6d 8d 2d 3e
       -0.498129 0.11442741 0.057908464 0.16948481
000350 b3 c8 7c 3e 5b 45 18 3e b6 03 ee 3d 7c d4 0c bd
       0.24685936 0.14870207 0.116218016 -0.03438233
000360 72 7a 04 3e 46 9a 93 bd 42 86 85 be 97 ff 79 3d
       0.12937334 -0.0720716 -0.26078993 0.061034765
000370 6e a1 24 bd fc 26 4d bf d3 a5 22 be 57 7e 79 bd
       -0.040193014 -0.8013761 -0.1588357 -0.060911503
000380 79 54 3b 3e a5 22 4c be 9a bf 34 3e a6 15 4b be
       0.18293943 -0.19935091 0.17651215 -0.19832477
000390 3f 5e fb be 36 32 38 3e 9f 3d 6d be 1e b1 d8 3d
       -0.49095342 0.17987904 -0.23168038 0.105806574
0003a0 92 fb e3 3d 71 c4 b7 3e 00 a7 bd 3c d0 94 64 bd
       0.111319676 0.3589206 0.02315092 -0.05580598
0003b0 25 d2 0c 3e e7 c5 41 bd 5d 1d d0 be 2a 86 6c 3d
       0.13752039 -0.047307875 -0.40647402 0.057745136
0003c0 00 74 08 be ba 09 d1 be 21 0d 77 be ae 8d ff bd
       -0.133255 -0.40827733 -0.24126102 -0.12478195
0003d0 62 78 0d 3e 6d e9 8d be fe f6 b9 3b 69 42 e3 3d
       0.13815454 -0.27717152 0.0056751957 0.11096651
0003e0 45 df ce 3d ed f4 d4 be 28 3c 38 3e 96 15 6f bd
       0.10101179 -0.41593114 0.17991698 -0.058370195
0003f0 c6 49 21 be 7a 76 12 bd 11 f4 0b 3d f1 ed 0c 3d
       -0.15750799 -0.03575752 0.034168307 0.034406606

layer2.bias f4 [128]
000000 02 c4 1a 3e 8e 3c 14 3e d2 55 52 3d f0 39 7c 3b
       0.15113834 0.14476225 0.051351376 0.0038486682
000010 66 73 22 3e 0d 01 3c 3d c3 4a 52 3e 3c f0 1d bd
       0.15864334 0.04589944 0.20536332 -0.038559183
000020 39 70 91 bc 19 09 ab 3e 90 64 51 3d 58 e4 70 bc
       -0.017753707 0.33405378 0.051121294 -0.014702879
000030 ed a3 1e 3e 7a eb a7 3c 7a 92 f2 bd 5b e0 93 3d
       0.1549222 0.020498026 -0.118443444 0.07220527
000040 37 5b 0c bd a6 48 8c 3d e5 cf 89 3d 22 c7 d7 3d
       -0.034266677 0.06849794 0.06729106 0.105360284
000050 49 94 ce bd b0 4f 94 3e 1d d1 96 3e fd aa 30 3e
       -0.10086877 0.28967047 0.29456416 0.17252727
000060 1d 1a a4 3d 43 c7 62 3e 03 da 6d 3e 36 a9 82 3e
       0.08012793 0.22146325 0.23227696 0.25519723
000070 20 74 4e 3d fa b6 94 bd f9 31 39 3e 95 83 84 3e
       0.050403714 -0.072614625 0.1808547 0.2588164
000080 3d 2a c7 bd a0 80 30 3d ae 02 98 3e 39 f9 61 3c
       -0.09724853 0.043091416 0.29689544 0.0137923295
000090 9b 26 7d 3d f3 fa f7 3d 4f a6 97 3e f4 97 02 3d
       0.061804395 0.12108412 0.2961907 0.031883195
0000a0 67 ba 61 3e 46 58 8b 3e c0 ef d7 3d c8 98 1d bd
       0.22043763 0.27215785 0.105437756 -0.03847578
0000b0 e3 b9 5f 3e 21 06 03 3e 68 50 29 3e 5a 45 2a 3e
       0.21848254 0.12795307 0.16534579 0.16628018
0000c0 0a 24 a0 3e 7c 29 d1 3d a9 6b e6 3d 3c 94 68 bd
       0.31277496 0.10212991 0.11251003 -0.056781992
0000d0 ac 86 13 3d 68 03 9f bd 32 37 29 3b 31 97 34 bd
       0.036017105 -0.077643216 0.0025820252 -0.0440895
0000e0 94 30 7d bd 0b ed 52 bc 7d 33 3c 3d 27 ec 16 3d
       -0.061813906 -0.012873898 0.04594754 0.036846306
0000f0 54 f7 8e bd 15 85 a2 3d ca c5 5d 3d f9 89 c8 3d
       -0.06980768 0.0793554 0.054143704 0.09791941
000100 8b 13 a0 3e 89 85 88 3e 6b 1f 2d bc 02 cd 05 3e
       0.3126491 0.2666438 -0.010566573 0.13066486
000110 0b 4f 98 3e c5 4b 97 bd d4 2b c7 3c 60 8c b9 bd
       0.29747805 -0.07387499 0.024312891 -0.090599775
000120 1e 1f 40 3e 05 6f 24 3d ca aa 42 bd 00 f0 85 bc
       0.1876187 0.04014494 -0.04752616 -0.016349792
000130 6e 7e 8a 3e bc 0a 5d 3d 95 50 8d 3e c8 84 fd bc
       0.27049583 0.053965315 0.27600542 -0.030947104
000140 0b bb 20 3e a3 aa 29 3e ac 61 85 3e d2 39 ac bc
       0.15696351 0.16568999 0.2605108 -0.021023665
000150 c1 27 bb 3d 5e 82 36 3d 30 92 ad 3e 3a 12 14 3c
       0.09138442 0.04455792 0.33900595 0.009037549
000160 43 3f 82 bd ed 66 18 3c b9 54 24 3e 8d 43 d0 3a
       -0.063597225 0.009301883 0.16047944 0.0015889272
000170 7f e1 36 3e 24 15 63 3e c2 8f c6 3c 32 4f 1d bd
       0.17859457 0.22176033 0.024238471 -0.038405605
000180 d9 9d 11 3e 5d cb c0 3d 64 c3 0c bc 34 37 9f 3e
       0.1422037 0.094137885 -0.008591507 0.31096804
000190 e8 d6 9c bc 13 37 90 bd 8c 03 b1 bd fb 01 17 3e
       -0.019145444 -0.070417546 -0.08643255 0.14746849
0001a0 44 8e f5 bc d4 27 a7 3e b5 47 14 be 24 d5 8e 3d
       -0.029975064 0.32647574 -0.14480479 0.06974247
0001b0 00 f2 18 bd 8b 97 65 3e ea 22 42 3e cb ec 2b bd
       -0.037340164 0.2242109 0.18958631 -0.04197387
0001c0 ae 02 16 be f5 78 45 be a6 b9 3d 3e 48 24 fb 3b
       -0.1464946 -0.19284423 0.1852785 0.007664237
0001d0 a8 78 5e 3e 02 35 2a 3e d1 ea 27 3e bf 2e 1e 3e
       0.21725714 0.16621783 0.16398169 0.1544752
0001e0 5a 55 93 bd 91 18 8c bd 8e d8 89 bd 83 8e 1c bd
       -0.07194014 -0.06840623 -0.06730758 -0.038221847
0001f0 6d 25 a5 bd a5 f2 75 3e 37 bc 8e 3e 6b d5 f8 bd
       -0.08063779 0.24018343 0.27877972 -0.12150081

layer3.weight f4 [2, 128]
000000 08 11 97 3e 76 86 9b 3e cc 4b 77 be 04 a1 85 be
       0.2950518 0.30376023 -0.24150008 -0.26099408
000010 47 c6 a7 3e a0 27 9f 3e 5e f6 94 3e 0b 21 8c bb
       0.3276846 0.3108492 0.29094213 -0.0042764
000020 26 40 8e be 80 10 8c 3e 4b 5c a1 bc 3e 48 5a 3c
       -0.27783316 0.27356339 -0.019697329 0.013322888
000030 23 ed d9 bd 57 d7 a6 be 60 b5 c6 be 80 7c af 3e
       -0.10640933 -0.32586166 -0.38810253 0.34274673
000040 8d b6 7f bd 40 ff 5f be 87 5f dd 3e 5f 42 06 3e
       -0.062429953 -0.21874714 0.43236944 0.13111256
000050 95 d6 8f be f7 62 89 3e 5e 92 92 3e 5a 09 bb 3e
       -0.280934 0.26833317 0.28627294 0.36530572
000060 30 e3 e4 3e 69 d6 a6 3e 8b b6 84 3e d1 2d 95 3e
       0.4470458 0.32585457 0.2592052 0.29136518
000070 77 ec b5 3e cc 89 05 be f3 20 33 3e 0c 48 a5 3e
       0.3553197 -0.13040847 0.17493038 0.3228153
000080 d2 9e e2 be d2 98 b7 3e 28 2e 9b 3e 2b ec ca bc
       -0.44261795 0.3585878 0.30308652 -0.024770817
000090 df 91 cb 3c c7 1b b2 be 3e 54 9b 3e 8e ac 68 3d
       0.02484983 -0.34786817 0.3033771 0.056805186
0000a0 1b 8d 99 3e 0d 12 96 3e d8 a2 83 3e 28 85 e7 be
       0.29990467 0.29310647 0.25710177 -0.45218778
0000b0 97 c4 b5 3e ce 72 ac 3e 4b cb b8 3e 16 60 bc 3e
       0.3550155 0.3368134 0.360926 0.36792058
0000c0 a5 79 69 3e c6 ba a1 3e 5e 17 83 3e 72 0f 31 bf
       0.2280031 0.3158781 0.25603765 -0.6916419
0000d0 84 c8 6f be 46 68 33 3d b6 ca 9a 3d c1 ad cf be
       -0.23416334 0.043800615 0.07558195 -0.4056225
0000e0 2a cf 72 be dc 83 8d bd 19 86 cb bd 1e 50 ec 3c
       -0.2371184 -0.06909916 -0.099376865 0.028846797
0000f0 d4 96 ba be 32 ce 73 be 40 a8 c5 bd bb be b1 3e
       -0.36443198 -0.23809126 -0.09651232 0.34715828
000100 76 6c 86 3e 80 34 69 3e 28 73 7d 3d 5c 5b 6d 3e
       0.26254624 0.22773933 0.0618774 0.23179382
000110 79 43 ad 3e 9e 92 5e 3b b2 b9 c8 3e 11 38 47 3d
       0.3384054 0.0033961902 0.39204174 0.048637453
000120 a1 c6 a7 3e f9 b5 a9 3e 5d 84 e9 be f8 d2 a9 be
       0.3276873 0.33146647 -0.45608798 -0.3316877
000130 4b 0d b2 3e 24 0f c9 bd 3d 72 99 3e 38 86 1d bd
       0.34775767 -0.09817341 0.2996997 -0.03845808
000140 c8 f6 df 3e 51 57 b0 3e 8a 40 c4 3e 23 95 76 be
       0.43742967 0.34441617 0.3833049 -0.24080329
000150 5f 6b 93 be ff 5d a7 3e 0d 2e 95 3e fe 61 34 bd
       -0.28792855 0.326889 0.29136696 -0.044038765
000160 1a 17 80 3d 97 0b ff 3d 52 43 ae 3e a2 1c c6 3b
       0.06254406 0.124533825 0.34035736 0.0060458938
000170 9c 11 b0 3e 43 ae a0 3e 11 b8 bf 3e b6 77 f6 3e
       0.34388435 0.3138295 0.3744512 0.48138207
000180 00 bd c2 3e 24 de 96 3e 03 e6 ed 3c b5 13 68 3e
       0.3803482 0.29466355 0.029040342 0.22663768
000190 72 51 fa be dd 10 a0 bd 9e 24 43 bc 10 97 b4 3e
       -0.48890263 -0.078157164 -0.011910586 0.35271502
0001a0 a3 ab 47 be 25 36 9e 3e 17 f9 0c bf 03 3f 05 be
       -0.19499068 0.30900684 -0.5506758 -0.13012318
0001b0 48 bf ec 3d fe a2 86 3e a0 92 c3 3e a0 ac d0 be
       0.115599215 0.26296228 0.38197803 -0.40756702
0001c0 ff e2 2a bf bb a4 10 bf 53 53 c7 3e 5d bc 80 be
       -0.6675262 -0.5650136 0.3893076 -0.2514371
0001d0 bd 4f b4 3e 04 e8 d8 3e 98 60 69 3e 6e 72 b7 3e
       0.35217085 0.42364514 0.22790754 0.3582949
0001e0 96 e1 5e 3d 63 0d 25 bf 14 72 13 3f 35 4c 58 be
       0.054414354 -0.6447355 0.57595944 -0.2112282
0001f0 50 73 96 3d 3e 04 d4 3e 3c f4 b5 3e 91 b2 53 be
       0.07346213 0.41409487 0.355379 -0.20673586
000200 20 8a aa 3e b5 1d 93 3e 8d 94 54 be b3 26 8b 3d
       0.33308506 0.28733602 -0.20759793 0.06794491
000210 71 9c c3 3e c4 d8 67 3e a2 3c ad 3e 3c 90 3d bd
       0.38205293 0.22641283 0.33835322 -0.04628013
000220 8b 00 0c bf 91 d2 9a 3e 1d 92 df 3e f7 db 76 bd
       -0.5468833 0.30238774 0.43666163 -0.06026837
000230 ff 47 aa be c0 8b ab be 58 1d ec be 51 eb b4 3e
       -0.33258054 -0.33505058 -0.46116138 0.35335782
000240 31 66 6e 3b fa 69 88 3d 34 51 da 3e 3b 32 30 3d
       0.0036376829 0.066608384 0.42640078 0.043016654
000250 90 20 8f be 7d f4 c1 3e 8f 63 33 3e 4a 78 b5 3e
       -0.2795453 0.37881842 0.17518447 0.35443336
000260 d7 93 bc 3e b0 29 5a 3e 9b 53 8d 3e c0 74 af 3e
       0.36831543 0.21304965 0.27602848 0.3426876
000270 b1 bf 9f 3e d7 b7 b1 be a9 75 c4 3e bc 2c 99 3e
       0.31200936 -0.3471057 0.38371018 0.29916942
000280 ec 67 c2 be c4 27 b3 3e c4 1c 96 3e d0 4d 51 bd
       -0.3796991 0.34991276 0.2931882 -0.0510996
000290 d7 1d 1f be 2b a6 8f 3e 7c f3 94 3e 91 76 96 3d
       -0.15538727 0.28056464 0.29092014 0.073468335
0002a0 11 93 b0 3e 39 63 fd 3d 62 c8 b4 3e f5 06 db be
       0.34487203 0.12372441 0.3530913 -0.42778745
0002b0 73 a1 a1 3e f0 c8 b6 3e 82 c5 a4 3e fd 68 a7 3e
       0.31568488 0.35700178 0.32181937 0.32697287
0002c0 20 2a b1 3e 8c 10 81 3e 09 0b 8a 3e cb 62 7e be
       0.3460245 0.25207937 0.26961544 -0.24842374
0002d0 e0 05 fd bd 58 e8 9d be 6b 24 8d 3d 7b e2 aa bd
       -0.12354636 -0.30841327 0.06891712 -0.08343979
0002e0 16 5c 1e bc 5c 56 ed 3c e4 ad 58 be 96 b0 3b be
       -0.00966551 0.028971843 -0.21160084 -0.18329081
0002f0 ff 54 01 bf a0 f9 a0 be f0 02 6b 3c b6 aa b6 3e
       -0.5052032 -0.3144045 0.014343962 0.35677117
000300 f7 37 c1 3e e6 b3 b6 3e cc 69 50 bd eb 15 a7 3e
       0.3773801 0.35684127 -0.050882146 0.3263391
000310 5f 0c 83 3e 6f ec 5e be 15 22 9a 3e 72 4a 18 be
       0.25595376 -0.2176988 0.30104128 -0.14872149
000320 dc d7 66 3e 46 06 b5 3e a9 a7 e7 bd 80 9d ca bd
       0.22543281 0.3535635 -0.113112755 -0.09893322
000330 33 75 9b 3e 35 a8 08 3e 1e a8 98 3e 89 95 58 bb
       0.30362853 0.13345416 0.29815763 -0.0033048114
000340 37 ae ac 3e 1c 7d c8 3e 94 b7 69 3e 8c 57 99 be
       0.33726665 0.3915795 0.22823936 -0.29949605
000350 1f 57 ae 3e 2a 3d b4 3e 69 f8 a8 3e b9 13 5e 3a
       0.34050843 0.35202914 0.33002022 0.0008471567
000360 4c c2 51 be a8 99 c4 bd 5a 4f c2 3e 80 5e 71 bd
       -0.20484275 -0.0959962 0.37951165 -0.058928013
000370 fb fa c3 3e 6f c0 a9 3e e4 90 69 3e 34 95 1c 3e
       0.3827742 0.33154628 0.22809178 0.15291291
000380 c8 45 47 3e bd 72 af 3e 97 da f3 bc 8a 11 8f 3e
       0.19460213 0.34267226 -0.029767318 0.2794307
000390 40 0d a3 be 23 7a 68 be 0a 5b 8d be c7 61 ba 3e
       -0.31846046 -0.22702841 -0.2760852 0.36402723
0003a0 c0 82 7b 3d 82 4f 7a 3e e0 34 09 bf 7c 11 24 be
       0.06140399 0.24444392 -0.53596306 -0.16022295
0003b0 62 1a a0 3e ed 88 c7 3e fe 77 96 3e d9 b1 b3 be
       0.31270128 0.38971654 0.29388422 -0.35096624
0003c0 eb 32 c3 be d0 d9 2a bf 7f 6b af 3e 24 2f c2 bd
       -0.38124785 -0.66738605 0.342617 -0.094816476
0003d0 92 71 50 3e fa d8 c0 3e c6 69 a6 3e 76 22 6b 3e
       0.20355824 0.3766554 0.32502574 0.22962365
0003e0 23 3a 7c 3d 7c 29 0c bf ea 12 4d be a1 44 72 be
       0.06157888 -0.547508 -0.20026746 -0.23658992
0003f0 78 50 39 3c d6 d3 cc 3e 3d 17 85 3e c2 e5 84 be
       0.011310689 0.40005368 0.25994292 -0.2595654

layer3.bias f4 [2]
000000 58 12 93 3d b4 e7 96 3d
       0.07181233 0.073684126
